BabbleNN-master/trained_model.ckpt (torch, 57078 bytes, 20 tensors)

conv1.weight f4 [32, 1, 80]
0	0xbbab1c04	-0.0052218456
1	0xbca47a16	-0.020077746
2	0x3e225243	0.15851693
3	0x3e52953a	0.20564738
4	0x3d838d4d	0.06423435
5	0x3dc3ed24	0.09566715
6	0x3ebd7d66	0.37009734
7	0xbd96be0b	-0.073604666
8	0xbe31af04	-0.1735192
9	0xbdc5981d	-0.09648154
10	0xbebc7e45	-0.36815086
11	0xbeeb9f0d	-0.46019784
12	0xbdf9d363	-0.12198522
13	0xbdd22c85	-0.10262398
14	0x3d2e027a	0.04248283
15	0x3e8f2edb	0.27965435
16	0x3ec77529	0.38956574
17	0x3e459021	0.19293262
18	0x3e553932	0.208226
19	0x3e9f8f53	0.31164035
20	0xbdc020d0	-0.093812585
21	0xbcffd6d9	-0.031230377
22	0x3e58a70e	0.21157476
23	0xbf05aac0	-0.5221367
24	0xbeb190a0	-0.34680653
25	0xbddf5008	-0.109039366
26	0xbe9057f6	-0.2819211
27	0xbe2c6f7f	-0.16839407
28	0xbe58dfb8	-0.21179092
29	0xbe95ac64	-0.29233086
30	0xbf2428c1	-0.64124686
31	0xbdd4c29b	-0.103886805
32	0xbe7a1254	-0.24421054
33	0x3e296a05	0.1654435
34	0x3eb17a24	0.34663498
35	0x3edb76c3	0.42864046
36	0x3ee5212a	0.44751865
37	0x3f586a1c	0.8453691
38	0x3f12da09	0.57363945
39	0x3f2a1c48	0.66449404
40	0xbdda67d6	-0.106643364
41	0xbea78337	-0.32717296
42	0xbf30c280	-0.69046783
43	0xbf776e16	-0.9665235
44	0xbfa60afd	-1.2972103
45	0xbf836b9b	-1.0267214
46	0xbeed4d0c	-0.46347845
47	0x3e0770f6	0.13226685
48	0x3e8d54a6	0.27603644
49	0x3f83018f	1.0234851
50	0x3f5fa366	0.873587
51	0x3f870e17	1.0551175
52	0x3f3458c6	0.7044796
53	0x3efd267e	0.4944343
54	0x3e5d088a	0.21585289
55	0xbed039d1	-0.4066911
56	0xbf0d71fc	-0.5525205
57	0xbf2398e3	-0.6390516
58	0xbf16cbd3	-0.5890476
59	0xbf397338	-0.72441435
60	0xbeaefd75	-0.34177747
61	0xbe9e5bbb	-0.3092936
62	0x3d868fef	0.06570422
63	0x3df1762e	0.11790119
64	0x3edcbb0b	0.43111452
65	0x3f28bcdf	0.65913194
66	0x3eb0e7a4	0.34551728
67	0x3eb5aa18	0.35481334
68	0x3da64eb6	0.08120482
69	0x3e057f41	0.13036825
70	0x3e1f1b63	0.15537791
71	0xbe5e367d	-0.21700473
72	0xbddc3a15	-0.10753266
73	0xbc28f416	-0.010312101
74	0xbe7dffa3	-0.24804549
75	0xbd8ffdef	-0.07030856
76	0xbd5b8ae9	-0.053599272
77	0x3cb0a2ff	0.021562098
78	0x3ddbec66	0.10738449
79	0xbe7ed88a	-0.2488729
80	0xbe2d8dee	-0.16948673
81	0x3e8eef07	0.27916738
82	0x3d2d0bb3	0.042247485
83	0xbdbbaf24	-0.09164265
84	0x3dcf85cb	0.10132941
85	0xbd9057b3	-0.07047977
86	0xbe40e709	-0.18838133
87	0xbe700ac2	-0.23441604
88	0xbe861cc1	-0.26193812
89	0x3e09d058	0.13458383
90	0x3ecc3fb1	0.39892343
91	0x3c03f5ac	0.008054178
92	0x3d4c2bd9	0.049846504
93	0xbe945cef	-0.28977153
94	0xbdd2b1e3	-0.102878354
95	0xbdd9e3fe	-0.10639189
96	0x3eb68b3b	0.356531
97	0x3e97f142	0.29676253
98	0x3d4607dc	0.04834734
99	0xbd88bdc7	-0.06676822
100	0xbed021e5	-0.4065086
101	0xbe85c044	-0.2612325
102	0xbe6223ba	-0.22083941
103	0x3e5bc91a	0.21463433
104	0x3eb09885	0.34491363
105	0x3f128e59	0.57248455
106	0xbe4d1611	-0.20027949
107	0x3dcd2123	0.10016086
108	0xbe71c801	-0.23611452
109	0xbedfe34e	-0.43728107
110	0xbe66cf14	-0.22539932
111	0x3e4021f9	0.1876296
112	0x3f12fd93	0.57418174
113	0x3f091ee9	0.5356279
114	0x3f0cbcca	0.5497557
115	0xbeaa4f0b	-0.3326343
116	0xbf64eb5e	-0.8942164
117	0xbf8869b4	-1.0657258
118	0xbf1c2fc6	-0.61010396
119	0x3f0037c8	0.50085115
120	0x3f6aa3b2	0.9165603
121	0x3f6b41c8	0.9189725
122	0x3e818b49	0.2530158
123	0xbeafed98	-0.34360957
124	0xbf3f1c39	-0.7465244
125	0xbf7552f5	-0.9582971
126	0xbe501f8f	-0.20324539
127	0x3e8495f8	0.25895667
128	0x3f9a2bb7	1.2044591
129	0x3f7519f4	0.95742726
130	0x3e8d8a0f	0.27644393
131	0xbf2c349d	-0.6726778
132	0xbf5e65a1	-0.86873823
133	0xbf6e6561	-0.9312344
134	0xbe45fed5	-0.19335492
135	0x3f32aa59	0.6979118
136	0x3f85b2b9	1.0445167
137	0x3f50249c	0.8130586
138	0xbe647265	-0.22309263
139	0xbf12e877	-0.57385963
140	0xbf174dd2	-0.5910312
141	0x3d9f5a4a	0.07780893
142	0x3e3129eb	0.17301147
143	0x3eda02f1	0.4258037
144	0x3eaaa1ab	0.33326468
145	0x3eab063c	0.33403194
146	0xbeb6f6a8	-0.3573506
147	0xbe7b38d1	-0.24533392
148	0xbe536fa0	-0.2064805
149	0xbe601152	-0.21881607
150	0x3aa6db0c	0.0012730076
151	0x3dd63ece	0.10461198
152	0x3e2d310e	0.16913244
153	0x3e211829	0.15731873
154	0x3e26b5aa	0.16280237
155	0xbe11922c	-0.14215916
156	0xbd2420e2	-0.040070422
157	0xbccc8a5f	-0.024968324
158	0x3e120e63	0.142633
159	0xbe3bf672	-0.1835573
160	0x3eb7dbc0	0.35909843
161	0xbeac8599	-0.33695677
162	0xbd21373f	-0.039359327
163	0xbd92f0b5	-0.071748175
164	0x3e5b8613	0.21437864
165	0x3dfb879b	0.12281724
166	0x3db60537	0.088877134
167	0xbdbe50d5	-0.09292761
168	0xbe5e1bff	-0.21690367
169	0xbe9dd4ea	-0.30826503
170	0x3db9780e	0.09056102
171	0x3e8c4b79	0.2740133
172	0x3e9c9991	0.30585912
173	0x3e71d3c2	0.23615935
174	0xbf0d0518	-0.550859
175	0xbe9cc2cc	-0.30617368
176	0xbd170428	-0.036869198
177	0x3f0e65ec	0.5562427
178	0x3ed09068	0.40735173
179	0xbceebf5e	-0.029143985
180	0xbf143a98	-0.57901907
181	0xbf0c3923	-0.54774684
182	0x3e8f616d	0.28004017
183	0x3ef3b5b8	0.47599578
184	0x3ec8dbe1	0.39230254
185	0x3e19fb3d	0.15037246
186	0xbe242b1a	-0.16032067
187	0xbf2a7756	-0.6658834
188	0xbe59de90	-0.21276307
189	0x3e5ac6bb	0.21364872
190	0x3ed71eb8	0.42015624
191	0x3ea3269b	0.3186539
192	0xbd849860	-0.06474376
193	0xbf107a18	-0.564363
194	0xbe91dadc	-0.2848729
195	0x3e45996c	0.19296807
196	0x3e817d4a	0.252909
197	0x3e8a4a4e	0.27009815
198	0x3e30792c	0.17233723
199	0xbd700a33	-0.058603477
200	0xbf24784f	-0.64246076
201	0xbf48aa49	-0.78384835
202	0x3e3d8ab1	0.18509938
203	0x3f0eadbb	0.5573384
204	0x3f505bd2	0.81390107
205	0x3dfcb27e	0.12338732
206	0xbf4a1556	-0.78938806
207	0xbf6265c8	-0.88436556
208	0xbe90c35c	-0.28274047
209	0x3f14be71	0.5810309
210	0x3f7346cf	0.9502992
211	0x3eb941f5	0.36183134
212	0xbea4a25a	-0.32155114
213	0xbf68332e	-0.90703094
214	0xbf400c12	-0.7501842
215	0x3dec864e	0.11549054
216	0x3f1c1807	0.6097416
217	0x3f511f3f	0.816883
218	0x3ec5eda6	0.38657874
219	0xbf2f0862	-0.68372166
220	0xbf6bb36c	-0.9207065
221	0xbeade74e	-0.33965534
222	0x3eb576b2	0.3544212
223	0x3f5ac670	0.8545904
224	0x3ed72916	0.42023534
225	0xbe8f60ea	-0.28003627
226	0xbf5360f2	-0.825698
227	0xbdc6b24a	-0.09701975
228	0x3e1d2429	0.15345825
229	0x3ecf0c23	0.40438947
230	0x3eec5dbf	0.46165273
231	0x3e0664f9	0.13124456
232	0xbe9b5653	-0.30339298
233	0xbf0d0ddc	-0.5509927
234	0xbd5d671b	-0.054053407
235	0x3e04e676	0.12978539
236	0xbc749eb7	-0.014930419
237	0x3def5eb4	0.11687985
238	0x3d3900e6	0.045166872
239	0x3d1e83d7	0.03869995
240	0x3eefa368	0.46804357
241	0x3e076e22	0.13225606
242	0xbe7a3f93	-0.24438314
243	0xbf32fa6e	-0.69913375
244	0x3f2dec04	0.67938256
245	0x3f1dd8dd	0.6165903
246	0xbeeaad19	-0.45835188
247	0xbf947cca	-1.1600583
248	0x3ecdadde	0.40171713
249	0x3f817b55	1.0115763
250	0x3ec55aa4	0.38545716
251	0xbf53992f	-0.82655615
252	0xbf3cd8e8	-0.7376847
253	0x3f15b1cc	0.5847442
254	0x3f79e05c	0.9760797
255	0xbe2505f5	-0.16115554

conv1.bias f4 [32]
0	0x3ac6fe33	0.0015181958
1	0x3994e791	0.0002840129
2	0xba58da07	-0.00082722347
3	0xba09313c	-0.0005233472
4	0xbae31dcd	-0.0017327607
5	0x3aca7cef	0.001544861
6	0xba18d474	-0.0005829998
7	0x3a661dd5	0.0008778249
8	0x3a3a8cff	0.0007116347
9	0x3ba0e7f1	0.004910462
10	0x3756126a	1.2759681e-05
11	0xb918b992	-0.0001456498
12	0xb7fc6b0e	-3.0090592e-05
13	0x36be5dd0	5.6733625e-06
14	0x39b5d0f1	0.00034678684
15	0xb70f4190	-8.538729e-06
16	0x3a937623	0.0011250417
17	0x39e5c4d7	0.0004382494
18	0x3afb27f4	0.0019161687
19	0x3a8fe392	0.0010977855
20	0xbb3360e2	-0.002737098
21	0x3a506a27	0.0007950388
22	0xba1f9a74	-0.0006088384
23	0x3a070b04	0.0005151483
24	0xbb43dbe9	-0.0029885715
25	0x3b411ead	0.0029467747
26	0xba04a515	-0.00050599995
27	0x3adc23de	0.0016795357
28	0xbb983526	-0.0046450077
29	0xbae9a47a	-0.0017825507
30	0xb89cbb19	-7.473509e-05
31	0x3a01926c	0.0004942778

bn1.weight f4 [32]
0	0x3f86ef42	1.0541766
1	0x3f917fd0	1.136713
2	0x3f879dbf	1.0595015
3	0x3f914475	1.1349016
4	0x3efe25c3	0.49638185
5	0x3f99216a	1.1963322
6	0x3f74f36f	0.9568395
7	0x3f65beae	0.8974408
8	0x3fbc9e2d	1.4735771
9	0x3fe63bf0	1.7987041
10	0x3faf1d36	1.368079
11	0x3f7899e1	0.971098
12	0x3f1dcc40	0.61639786
13	0x3f8967b2	1.073477
14	0x3f1115b9	0.5667377
15	0x3fc26f7a	1.519027
16	0x3fa9d784	1.3268895
17	0x3f50c069	0.81543595
18	0x3fc6f2ae	1.554281
19	0x3f70d9aa	0.9408213
20	0x400953a8	2.145731
21	0x3f9afca9	1.2108356
22	0x3f94958c	1.1608138
23	0x3f53f45b	0.8279473
24	0x3fa784e3	1.3087429
25	0x3fe0e2a3	1.7569164
26	0x3fa25bdb	1.2684282
27	0x3fc08bb8	1.5042639
28	0x40433521	3.0501177
29	0x3f97e498	1.1866636
30	0x3fb98093	1.4492363
31	0x3f3ceac1	0.73795706

bn1.bias f4 [32]
0	0xbcd893a6	-0.026437592
1	0x3d17eeb9	0.037092898
2	0x3e3bc2d8	0.18336046
3	0xbd53ebb2	-0.05173845
4	0x3c781805	0.015142445
5	0x3b30f3b5	0.002700073
6	0x3d23f131	0.04002494
7	0x3d234a05	0.039865512
8	0x3c84cb73	0.016210293
9	0x3c01d1d8	0.007923566
10	0xbfb3fc38	-1.4061346
11	0xbc623d2e	-0.013808532
12	0x3e5a89d0	0.21341634
13	0xbc764794	-0.015031714
14	0x3babdd42	0.005244882
15	0xc008dd69	-2.1385138
16	0x3c9193e6	0.017770719
17	0x3c511fc8	0.012763925
18	0x3c40b277	0.011761299
19	0xbca3d46d	-0.019998753
20	0x3a8634bc	0.0010239105
21	0x3d0a1e28	0.033720165
22	0x3c0377b6	0.008024147
23	0x3bf7db93	0.007564017
24	0xbc09da59	-0.008413875
25	0x3b8c20ec	0.0042763855
26	0xbc167c0b	-0.009184848
27	0xbcc2fa9a	-0.023801137
28	0x3c8949c9	0.016758816
29	0x3cfbcf58	0.030738518
30	0xbff3aa14	-1.9036279
31	0xbcbf6efe	-0.023368355

bn1.running_mean f4 [32]
0	0x3bb14869	0.0054102433
1	0x3bc81a87	0.006106678
2	0xb9750d65	-0.0002337001
3	0x3a3e1027	0.00072503317
4	0x3a35ba33	0.0006932348
5	0x3a2f3ddd	0.00066849386
6	0xbb8f8990	-0.0043804124
7	0x3b01f0b8	0.0019827317
8	0x3aa9cbae	0.0012954378
9	0x3b50a81a	0.0031838478
10	0xbba9a54e	-0.0051771766
11	0x3c8df79c	0.017329983
12	0xba9f9942	-0.0012176412
13	0xba4b7bd2	-0.0007762286
14	0x3ad4f664	0.0016247747
15	0x3b1b6cf8	0.0023716073
16	0x3a828ec5	0.0009960762
17	0xbb1a66a4	-0.0023559714
18	0x3b3c81b4	0.0028763833
19	0x3ac7aa9b	0.001523334
20	0xbb102966	-0.0021997332
21	0xb88e5f30	-6.788818e-05
22	0x3b26eb1e	0.002546973
23	0x39a1681e	0.00030785886
24	0xbb702b15	-0.0036646773
25	0x3ba703bf	0.005096882
26	0x38c2a71a	9.281766e-05
27	0xbb18061d	-0.0023197003
28	0xbb916013	-0.004436502
29	0xbccd909d	-0.025093371
30	0x39b298e4	0.00034064718
31	0xbb71f5c0	-0.003692016

bn1.running_var f4 [32]
0	0x3d7b39ae	0.061334305
1	0x3faba9bb	1.3411173
2	0x3ea720d7	0.32642242
3	0x3d80c22b	0.062870346
4	0x3d1e031f	0.038577195
5	0x3e5de919	0.21670951
6	0x3d4350aa	0.04768435
7	0x3da08cd6	0.07839362
8	0x3e353be7	0.17698632
9	0x3d6605eb	0.056157988
10	0x3e9d44da	0.30716592
11	0x3f4eb32d	0.8074215
12	0x3e67239b	0.22572176
13	0x3f960a0e	1.1721818
14	0x3d6697bd	0.056297053
15	0x3e78f241	0.24311163
16	0x3de2679b	0.110549174
17	0x3defb671	0.1170472
18	0x3ce18abd	0.027531976
19	0x3d366c45	0.044536848
20	0x3e1e74bc	0.15474218
21	0x3e64154d	0.2227375
22	0x3f32bdb0	0.6982069
23	0x3ecfdaa9	0.40596512
24	0x3cc99525	0.02460725
25	0x3d04f407	0.032459285
26	0x3e277497	0.16353069
27	0x3e168551	0.14699294
28	0x3c82fcc8	0.015989676
29	0x3fb3b7b7	1.404044
30	0x3e4fe0dc	0.20300621
31	0x3e61c1c4	0.22046572

conv2.weight f4 [32, 32, 3]
0	0x3efa328d	0.48866692
1	0x3e386f7e	0.18011281
2	0xbd915aab	-0.07097372
3	0x3f59f810	0.8514414
4	0x3e8aeb9e	0.27132887
5	0xbf19fa4a	-0.60147536
6	0x3de0a134	0.10968247
7	0xbc5aa5bf	-0.013345181
8	0xbf27d38b	-0.65557164
9	0xbea68fd0	-0.32531595
10	0xbe2da445	-0.16957195
11	0xbe4751b7	-0.19464765
12	0xbe66035c	-0.22462219
13	0xbe0b1fde	-0.13586375
14	0x3e3acc06	0.18241891
15	0xbe660a91	-0.22464968
16	0xbe767584	-0.24068266
17	0xbf588c70	-0.8458929
18	0x3ecc8f6e	0.39953178
19	0x3e07b1d5	0.13251431
20	0xbebe4568	-0.37162328
21	0x3ed11268	0.40834355
22	0x3e59264a	0.21206012
23	0xbeb3e270	-0.35133696
24	0xbee324a7	-0.443639
25	0xbf1e4577	-0.61824745
26	0xbfb9bf35	-1.4511477
27	0xbe7fc76c	-0.24978417
28	0xbe6d8093	-0.23193578
29	0xbe87f5c4	-0.26554692
30	0xbf567d5f	-0.8378505
31	0xbebef61d	-0.37297145
32	0xbeb44fc1	-0.35217097
33	0x3f4457d7	0.7669653
34	0x3e85c6f6	0.26128358
35	0xbf146917	-0.57972854
36	0x3f285c13	0.65765494
37	0x3e6f4ce6	0.23369178
38	0xbb5332b7	-0.0032226273
39	0x3f553b73	0.8329384
40	0x3d962ad4	0.073323876
41	0xbf05a42f	-0.5220365
42	0x3e55232a	0.20814195
43	0xbe346028	-0.17614806
44	0xbe2ef71f	-0.17086457
45	0xbef62605	-0.48075882
46	0xbedb2355	-0.42800394
47	0xbd94944c	-0.07254848
48	0xbf14c010	-0.58105564
49	0xbe63701e	-0.22210738
50	0xbf3daf6d	-0.74095803
51	0x3f0d9003	0.5529787
52	0x3ebd68af	0.3699393
53	0xbd9382a0	-0.07202649
54	0xbf18eade	-0.5973338
55	0xbe0b2706	-0.13589105
56	0xbf630010	-0.8867197
57	0x3e4d7049	0.20062365
58	0xbe21ecad	-0.15812941
59	0xbdf1c4c0	-0.11805105
60	0x3e37beac	0.1794383
61	0xbe9034e2	-0.28165346
62	0x3e927468	0.28604436
63	0xbdcc2a77	-0.09969037
64	0xbf02a6a7	-0.5103554
65	0xbf790111	-0.9726725
66	0x3df4420a	0.119266585
67	0xbcbb8a6d	-0.022893155
68	0xbf57f198	-0.8435302
69	0x3ec1ecc0	0.37875938
70	0x3e5191eb	0.2046582
71	0xbe6b5f4d	-0.22985573
72	0xbf2e592f	-0.68104833
73	0xbf0fe7ab	-0.5621287
74	0xbf1c17fa	-0.60974085
75	0xbf0743d6	-0.52837884
76	0xbf10b0be	-0.5651969
77	0xbeaf9b03	-0.34297952
78	0xbeb13031	-0.3460708
79	0xbf04f997	-0.51943344
80	0xbeaab152	-0.3333841
81	0xbf21cc43	-0.63202304
82	0xbec1b1af	-0.37830874
83	0xbf472c0f	-0.77801603
84	0xbcf3d7fd	-0.029766077
85	0x3dba354a	0.09092195
86	0x3cacd6aa	0.021098454
87	0x3f1c8941	0.6114693
88	0x3e2e6479	0.17030515
89	0xbf475d02	-0.77876294
90	0xbf2a6f45	-0.66576034
91	0xbf3f8b63	-0.7482206
92	0xbe5563e7	-0.20838891
93	0x3ec9871d	0.39360896
94	0x3e9fddfc	0.31224048
95	0xbe7f8abc	-0.24955267
96	0x3e5869fa	0.21134177
97	0xbdac20d5	-0.084047
98	0x3edc82a4	0.4306842
99	0xbf7f2bce	-0.99676216
100	0xbc576bc3	-0.013148251
101	0x3f249746	0.64293325
102	0xbf5a9bae	-0.853938
103	0xbd4977b7	-0.049186435
104	0x3f1e7432	0.6189605
105	0xbdcafd8d	-0.09911642
106	0xbe63e2ff	-0.22254561
107	0xbf631f40	-0.8871956
108	0x3e89aff0	0.26892042
109	0x3deda0c6	0.11602931
110	0xbdae4415	-0.08509079
111	0xbf0abdb9	-0.54195744
112	0xbf2c9962	-0.67421544
113	0x3dcada68	0.09904939
114	0xbe7eb2af	-0.2487285
115	0x3d2f8347	0.042849805
116	0x3e9b7d5e	0.30369085
117	0xbb16c908	-0.0023008008
118	0x3e5d9c63	0.21641688
119	0xbd9c75b8	-0.076396406
120	0xbf294c1a	-0.66131747
121	0xbf6ed435	-0.9329255
122	0x3dafcf31	0.085844405
123	0xbe2a5ccd	-0.16636963
124	0x3eb1ebbd	0.34750167
125	0xbf345a67	-0.70450443
126	0x3e6644c0	0.22487164
127	0xbf2c8cc0	-0.6740227
128	0xbf6f577c	-0.93492866
129	0xbf1fb1ec	-0.6238086
130	0x3e854a08	0.26033044
131	0x3ef7e05f	0.4841337
132	0xbf17bf40	-0.592762
133	0x3f09b144	0.5378611
134	0x3e012b65	0.1261421
135	0xbf519e39	-0.81882054
136	0xbda9cc58	-0.082909286
137	0x3f28490c	0.6573646
138	0xbee2ed08	-0.44321465
139	0x3db0392f	0.08604657
140	0x3e3b7fad	0.18310423
141	0x3e3d4b1b	0.18485682
142	0xbe952347	-0.29128477
143	0xbf88a60c	-1.0675673
144	0xbea88b4c	-0.32918775
145	0xbed92dc6	-0.42417735
146	0xbf1361ee	-0.57571304
147	0xbc78d71d	-0.015188006
148	0x3e7e22fd	0.24818034
149	0x3e8dc95e	0.27692693
150	0xbe37fdc5	-0.17967899
151	0xbed89996	-0.42304677
152	0xbf213f68	-0.62987375
153	0xbe05ba16	-0.13059267
154	0xbd9294bf	-0.07157277
155	0x3e962e21	0.2933207
156	0x3e0ca815	0.13735993
157	0x3e8e4c97	0.27792808
158	0xbe737399	-0.23774566
159	0xbf5ebc87	-0.8700642
160	0xbf375c24	-0.7162497
161	0x3ea56953	0.32306919
162	0xbf2afc89	-0.6679159
163	0xbf0f807a	-0.56055415
164	0x3f78badc	0.97160125
165	0xbf53406a	-0.82520163
166	0xbe76bcf6	-0.2409552
167	0x3f2efa52	0.6835071
168	0xbe7efe53	-0.24901704
169	0xbea701f4	-0.32618678
170	0xbf5ebd46	-0.8700756
171	0x3e4a90ba	0.19781771
172	0xbe2dbbff	-0.16966246
173	0xbf439459	-0.76398236
174	0xbf14f3ae	-0.58184326
175	0xbee65ac2	-0.44991118
176	0xbedbe31f	-0.42946717
177	0xbf384885	-0.71985656
178	0xbf29d4d1	-0.6634036
179	0xbf0907b3	-0.53527373
180	0xbd8e131e	-0.0693724
181	0x3e0e219b	0.13880007
182	0x3cbad304	0.022805698
183	0xbf37408d	-0.7158287
184	0x3e8a633c	0.27028835
185	0x3f3da179	0.7407451
186	0xbb6dab4c	-0.003626543
187	0xbe9ca854	-0.30597174
188	0xbf54f2bb	-0.8318288
189	0xbe8eb376	-0.27871293
190	0x3e8b411d	0.27198115
191	0x3f1150f9	0.5676418
192	0x3b2c02f2	0.0026246873
193	0x3e2856e2	0.16439393
194	0xbe1a8a58	-0.15091836
195	0xbe0d86a1	-0.13820888
196	0x3ed658f4	0.4186474
197	0xbe9b97a2	-0.30389124
198	0x3f90f310	1.1324177
199	0xbf8011ab	-1.0005392
200	0xbf1eed64	-0.6208098
201	0x3f3fc71c	0.7491319
202	0x3f518fb4	0.818599
203	0xbe98eb62	-0.29867083
204	0x3d879329	0.066198654
205	0x3e805568	0.2506516
206	0x3ec0c8a9	0.37653092
207	0xbf4ff1d3	-0.8122837
208	0xbe909ed6	-0.28246182
209	0x3f5f9d53	0.8734943
210	0x3e05a7fb	0.1305236
211	0xbe92c959	-0.2866924
212	0xbebda750	-0.37041712
213	0xbfc52805	-1.5402838
214	0xbfbcb32d	-1.474218
215	0xc000c162	-2.0118032
216	0xbf92e35b	-1.1475633
217	0xbf330546	-0.6992992
218	0x3f568300	0.8379364
219	0xbe50ced9	-0.20391406
220	0xbe100128	-0.14062941
221	0xbbbf51cd	-0.005838609
222	0xbeabba62	-0.33540636
223	0xbf3e084e	-0.7423142
224	0xbf5c141d	-0.8596819
225	0xbf28fb9f	-0.66008943
226	0x3f9cc015	1.2246119
227	0xbecc421d	-0.3989419
228	0xbe996177	-0.29957172
229	0xbd16868e	-0.036749415
230	0x3c6b2b02	0.014353516
231	0xbced0afe	-0.028935906
232	0x3ef2ee79	0.47447565
233	0xbee30da8	-0.44346356
234	0xbd93e7c2	-0.07221939
235	0x3e94cd95	0.29063097
236	0x3f0537da	0.5203835
237	0xbf29464c	-0.6612289
238	0xbe9b2df9	-0.30308512
239	0xbd75da4a	-0.06002263
240	0x3f2375d2	0.63851655
241	0x3efc216b	0.49244246
242	0xbf121c8f	-0.57074827
243	0xbcecadf6	-0.028891545
244	0x3e7f2c28	0.24919188
245	0x3f6eccae	0.93281066
246	0xbc0f8319	-0.008759283
247	0xbf9cb2f7	-1.2242116
248	0xbf214d9b	-0.6300904
249	0x3ef16fa9	0.47155502
250	0x3e2ea4e9	0.17055096
251	0xbf270e34	-0.6525605
252	0xbefcf61b	-0.49406514
253	0x3dd3f352	0.10349144
254	0xbdc6dedf	-0.09710478
255	0xbee5bab4	-0.44869006

conv2.bias f4 [32]
0	0xb85bf7ce	-5.2444455e-05
1	0xb8e0395c	-0.00010691836
2	0x38561fbb	5.1051127e-05
3	0xb9631095	-0.00021654584
4	0xb795c1d1	-1.7852437e-05
5	0xb7f65b21	-2.936792e-05
6	0xb633fc09	-2.6819782e-06
7	0x38873363	6.446873e-05
8	0xb8873806	-6.447737e-05
9	0x37a0ad86	1.915429e-05
10	0xb8ca9951	-9.660668e-05
11	0x38989124	7.274959e-05
12	0xb83b37f7	-4.4636396e-05
13	0x02d754b0	3.164002e-37
14	0xb8269cd2	-3.9723534e-05
15	0x37283ca1	1.0027697e-05
16	0xb820bb83	-3.8321607e-05
17	0x380474ed	3.1580148e-05
18	0xb74bd212	-1.2148654e-05
19	0x3736cbb4	1.0895474e-05
20	0xb90549ee	-0.0001271141
21	0xb62d589c	-2.5830586e-06
22	0x387a2e19	5.9647577e-05
23	0xb6d887b8	-6.4531014e-06
24	0x37e196f5	2.6892385e-05
25	0xb7323b0b	-1.0623374e-05
26	0x382acbd8	4.0721003e-05
27	0x38661a59	5.486081e-05
28	0x383c8975	4.495071e-05
29	0xb8ebeef4	-0.00011250182
30	0x02a72428	2.4559197e-37
31	0x372f4e4e	1.0449045e-05

bn2.weight f4 [32]
0	0x3fde38b1	1.7361051
1	0x3fe98241	1.8242875
2	0x3f6d9156	0.9279989
3	0x402661ed	2.599727
4	0x3eae2e7f	0.3401985
5	0x3f39538b	0.723931
6	0x405c718d	3.4444306
7	0x4040539a	3.0051026
8	0x4080229b	4.0042243
9	0x3fb04ee9	1.3774081
10	0x3f94d64a	1.1627896
11	0x3f5528d5	0.8326543
12	0x3fabf386	1.3433692
13	0x0002430b	2.07721e-40
14	0x3fbc4dc1	1.4711229
15	0x3eb42938	0.35187697
16	0x3f9fb6fd	1.2477719
17	0x400cc2b1	2.199383
18	0x400fcaaa	2.2467446
19	0x3e96833e	0.29397005
20	0x3fa29b03	1.2703556
21	0x4052d75d	3.2943947
22	0x3ed48a80	0.41511917
23	0x3f138914	0.5763104
24	0x40065690	2.0990334
25	0x3e99fa99	0.30074003
26	0x3f959a6e	1.1687753
27	0x3e9043a8	0.28176618
28	0x3f2a7c40	0.6659584
29	0x3f5f9455	0.8733571
30	0x8002a9a7	-2.44531e-40
31	0x408bde14	4.370859

bn2.bias f4 [32]
0	0xbe73eda3	-0.2382112
1	0xbef13edf	-0.4711828
2	0xbe803ae2	-0.25044924
3	0xbf4091e1	-0.75222594
4	0x3f071a0d	0.52774125
5	0x3e24b206	0.16083536
6	0xbff264c7	-1.8937005
7	0xbf84a14a	-1.0361722
8	0xbf488478	-0.7832713
9	0xbec666a0	-0.38750172
10	0xbe92cc29	-0.28671387
11	0x3d97a714	0.074049145
12	0xbec42b7f	-0.38314435
13	0x8003af1f	-3.38328e-40
14	0xbe1fc8f5	-0.15604003
15	0xbf8b24f7	-1.0870656
16	0xbdd17660	-0.10227656
17	0xbeef5993	-0.46748027
18	0xbf0d4b84	-0.5519335
19	0x3f25a13f	0.64699167
20	0x3cabd09b	0.020973494
21	0xbfaecf71	-1.3657056
22	0x3d92ad6b	0.07161983
23	0x3e0da2c1	0.13831617
24	0xbe51b57f	-0.20479392
25	0x3e043030	0.12909007
26	0x3caa2f54	0.020774521
27	0x3e0f82c0	0.14014721
28	0x3d87fa44	0.06639531
29	0x3ec6c8c5	0.3882505
30	0x80053e60	-4.81553e-40
31	0xbfd4bd35	-1.6620241

bn2.running_mean f4 [32]
0	0xc0c99da1	-6.300492
1	0xc0b08c6a	-5.5171404
2	0xc0741c0c	-3.8142118
3	0xc0598f71	-3.39938
4	0x3ea3c5e5	0.3198692
5	0xc0101200	-2.2510986
6	0xc0c5bfcc	-6.1796627
7	0xc0a627ae	-5.1923437
8	0xc107e663	-8.493747
9	0xc04749cf	-3.11388
10	0xc0733499	-3.8000853
11	0xc062bcfe	-3.5427852
12	0xc09efe8a	-4.9685717
13	0x02541e7d	1.558405e-37
14	0xc0488560	-3.1331406
15	0x403fb6e5	2.995538
16	0xc0bbe0b4	-5.8711796
17	0xc10fe9da	-8.994593
18	0xc09d80dc	-4.92198
19	0xbfbe16cc	-1.4850707
20	0xc0a48347	-5.141025
21	0xc0f5f716	-7.686412
22	0xbf9cc561	-1.2247735
23	0xc015fe3d	-2.3436425
24	0xc1176c78	-9.463982
25	0x409946bf	4.789886
26	0xc03232ed	-2.7843583
27	0x40b9575f	5.7919154
28	0xbfdbe7e0	-1.7180138
29	0xc09c526e	-4.885062
30	0x026d4a40	1.7433319e-37
31	0xc0d8859c	-6.7663097

bn2.running_var f4 [32]
0	0x43e13a32	450.45465
1	0x43a3ee6e	327.86273
2	0x428eddb4	71.433014
3	0x42a888c2	84.267105
4	0x42d61a32	107.05116
5	0x432d9b34	173.60626
6	0x432746cc	167.27655
7	0x42c68dab	99.276695
8	0x441d5134	629.2688
9	0x42a63f89	83.12409
10	0x42f58fbd	122.78074
11	0x43143731	148.21559
12	0x433ce569	188.89613
13	0x00000004	6e-45
14	0x435ff790	223.96704
15	0x4295e562	74.94801
16	0x442ad68f	683.3525
17	0x445a3ffe	872.9999
18	0x43933ba4	294.46594
19	0x4274f88f	61.242733
20	0x438f7ab7	286.9587
21	0x4404aad9	530.6695
22	0x4256dfc1	53.71851
23	0x425d7d52	55.372383
24	0x448a4d87	1106.4227
25	0x43242f12	164.18387
26	0x439ee5e2	317.79596
27	0x438026ab	256.3021
28	0x42dd41dc	110.62863
29	0x42dbb01b	109.843956
30	0x00000004	6e-45
31	0x43880d5b	272.10434

conv3.weight f4 [64, 32, 3]
0	0x3eb314f7	0.34976932
1	0xbdb71654	-0.089398056
2	0x3deefc15	0.116691746
3	0xbf2434f7	-0.6414332
4	0xbf1a1ffc	-0.60205054
5	0xbdd08257	-0.1018111
6	0xbe9adc80	-0.30246353
7	0xbe8ded88	-0.27720284
8	0x3e2862e4	0.16443974
9	0x3f363dfb	0.71188325
10	0xbe4a3b78	-0.19749248
11	0xbe883bfa	-0.26608258
12	0xbe653d72	-0.22386721
13	0xbd21c426	-0.039493702
14	0xbe2165a5	-0.1576143
15	0xbe8f6b5b	-0.28011593
16	0xbf5fa7ba	-0.87365305
17	0xbccf8727	-0.025333
18	0xbe478d42	-0.1948748
19	0x3c7936e3	0.01521084
20	0x3e4c5da0	0.1995759
21	0x3f380202	0.71878064
22	0x3e5a7675	0.2133425
23	0xbedb1895	-0.42792192
24	0x3f507ace	0.81437385
25	0xbee60b0c	-0.44930303
26	0xbe98fb4a	-0.29879218
27	0x3eebf9b6	0.46088952
28	0x3eec12fb	0.4610823
29	0xbd94763f	-0.07249116
30	0xbf2d84d0	-0.6778078
31	0xbe5c981f	-0.21542405
32	0xbf3f3d20	-0.74702644
33	0xbe3bf203	-0.18354039
34	0xbdfeb79b	-0.12437364
35	0x3d92cec0	0.07168341
36	0x3f29af12	0.6628276
37	0x3fa8d381	1.3189546
38	0xbe30d386	-0.1726819
39	0x800232db	-2.01914e-40
40	0x00012a4c	1.07009e-40
41	0x0002797f	2.27256e-40
42	0xbd948ed6	-0.07253806
43	0xbee8aec9	-0.4544585
44	0x3e5c1bdd	0.21495004
45	0x3dcda119	0.100404926
46	0x3e44cf9c	0.19219822
47	0x3e942563	0.28934774
48	0xbeca1228	-0.39466977
49	0x3ebe50cb	0.37171015
50	0xbac86511	-0.0015288909
51	0xbe93be62	-0.28856188
52	0xbe6f3758	-0.23360956
53	0x3de6d48d	0.112710096
54	0x3e896391	0.26833776
55	0xbddea271	-0.10870827
56	0xbdd5afa9	-0.10433895
57	0x3d8df91d	0.0693228
58	0x3e2deab9	0.16984071
59	0x3def06b9	0.11671204
60	0x3e8f532e	0.2799315
61	0x3c4a4607	0.012345797
62	0x3e8aefea	0.27136165
63	0xbe369575	-0.17830451
64	0xbc70ac0c	-0.014689457
65	0x3c8d2299	0.017228412
66	0xbe520094	-0.20508033
67	0xbd8a4cdd	-0.06752942
68	0xbebea972	-0.37238652
69	0x3e4a7714	0.19771987
70	0x3e104a63	0.14090876
71	0xbf054124	-0.5205252
72	0xbf164455	-0.58698016
73	0x3dad7e32	0.084713355
74	0x3e4bfb40	0.19920063
75	0xbe4d48bb	-0.20047276
76	0x3d38f080	0.045151234
77	0xbe01e992	-0.12686756
78	0xbf27558c	-0.6536491
79	0x3d19fa51	0.037592236
80	0x3e990ba7	0.29891703
81	0xba1c84a6	-0.0005970694
82	0xbecee762	-0.40410906
83	0xbf9bf868	-1.2185183
84	0x3e52ea86	0.20597276
85	0x3f160f1b	0.586168
86	0xbe728cbb	-0.23686497
87	0x3dfe279c	0.12409899
88	0x3efdb707	0.495537
89	0xbf4ac3a9	-0.79204804
90	0x8001003d	-9.1921e-41
91	0x0003c89c	3.47472e-40
92	0x0003f74d	3.64221e-40
93	0x3d35e8f5	0.04441162
94	0xbed4aaaf	-0.4153647
95	0x3d7e4dda	0.062085964
96	0x3edbd723	0.42937574
97	0x3d5eebd5	0.054424126
98	0x3df19692	0.11796297
99	0xbc8f6c71	-0.017507764
100	0xbe6435ae	-0.22286102
101	0xbf0a277d	-0.53966504
102	0x3e98ce54	0.29844916
103	0x3e052d4c	0.1300556
104	0xbe32a459	-0.17445506
105	0xbcacdc49	-0.021101134
106	0xbe252e40	-0.16130924
107	0x3ecfae09	0.40562466
108	0xbe5a9d5a	-0.21349087
109	0x3e81fac2	0.25386626
110	0xbd64e0ae	-0.055878334
111	0x3eaba559	0.33524588
112	0x3eaf9e0d	0.3430027
113	0xbee72654	-0.4514643
114	0x3d86d6e6	0.065839574
115	0xbe445b85	-0.19175537
116	0xbf17c210	-0.5928049
117	0xbdda0594	-0.10645595
118	0xbe95ee7e	-0.29283518
119	0xbe0beac2	-0.13663772
120	0x3de8912d	0.11355815
121	0x3eaeedfa	0.34165937
122	0x3f14c92c	0.58119464
123	0xbe670bb6	-0.22563061
124	0xbef8728b	-0.4852489
125	0xbf04c04f	-0.5185594
126	0xbf4abe09	-0.7919622
127	0xbe9ad760	-0.30242443
128	0x3d6d0171	0.057862703
129	0xbe94bd86	-0.29050845
130	0xbe8158e3	-0.25263128
131	0xbce71dc7	-0.028212441
132	0x3db12b95	0.08650891
133	0x3cbb75c1	0.022883298
134	0xbe0bd48b	-0.13655297
135	0x80109127	-1.521439e-39
136	0x8034ffb6	-4.867178e-39
137	0x00078ceb	6.934e-40
138	0x3d119cc1	0.035549883
139	0xbd6baa70	-0.05753559
140	0x3dd6629f	0.10468029
141	0x3e41f3bd	0.18940635
142	0xbdacfaa3	-0.08446243
143	0x3e1f2b7a	0.15543929
144	0x3d29c9a5	0.04145207
145	0xbe63432a	-0.2219359
146	0xbe95ffc0	-0.29296684
147	0x3d521587	0.05129006
148	0x3e93d7df	0.28875634
149	0x3d9a6b6b	0.075400196
150	0x3d8b8668	0.06812745
151	0x3e48bc13	0.19602995
152	0x3e35b5c6	0.17745122
153	0xbec7d7e0	-0.39031887
154	0x3f066856	0.52502954
155	0x3e8b3c45	0.2719442
156	0x3efd7f4d	0.49511185
157	0xbf06e4fa	-0.5269314
158	0xbef72433	-0.48269805
159	0xbe972547	-0.29520628
160	0xbc25fb3b	-0.010130699
161	0xbe8c9649	-0.27458408
162	0xbe04c02e	-0.12963936
163	0xbebec590	-0.37260103
164	0xbefc179b	-0.4923676
165	0xbe46d401	-0.1941681
166	0xbeb3e81f	-0.35138032
167	0x3d551bcd	0.052028466
168	0x3eb60752	0.3555246
169	0x3f271b34	0.65275884
170	0xbe3a19c3	-0.1817389
171	0x3f05f08f	0.5232019
172	0x3d50481b	0.050850015
173	0xbed552c1	-0.416647
174	0xbeb57396	-0.35439748
175	0xbe21259c	-0.15737003
176	0xbd370ac2	-0.044687994
177	0xbe468102	-0.1938515
178	0xbef0a521	-0.47000983
179	0xbe9d073b	-0.3066958
180	0xbda70b84	-0.08156493
181	0xbdd998f5	-0.10624877
182	0x3d997ada	0.07494135
183	0xbf152aeb	-0.5826861
184	0xbeca3864	-0.39496148
185	0x3eba1d90	0.3635068
186	0x80035e0d	-3.09246e-40
187	0x80032818	-2.8989e-40
188	0x0000bf2d	6.8581e-41
189	0xbe5eff2b	-0.21777026
190	0x3e37ae8c	0.17937678
191	0x3e341b3f	0.17588519
192	0x3cf60cd9	0.030035423
193	0xbddbcb5c	-0.10732147
194	0x3ea25372	0.3170429
195	0xbf4a354f	-0.7898759
196	0xbd8257f7	-0.06364434
197	0x3eb784bb	0.35843453
198	0xbf006756	-0.5015768
199	0xbe59204d	-0.21203728
200	0x3dc77bcb	0.097404085
201	0xbf057598	-0.5213256
202	0x3e158375	0.14600928
203	0xbf1af73e	-0.6053351
204	0x3dad94e1	0.08475662
205	0x3ecc10e2	0.3985663
206	0x3eb3ed96	0.351422
207	0x3cd40b5d	0.025884325
208	0xbef98ad1	-0.4873872
209	0xbe0475ba	-0.12935534
210	0x3e01065c	0.12600082
211	0xbe92ebda	-0.28695565
212	0xbe9f6660	-0.31132793
213	0xbe219e88	-0.15783131
214	0x3e17572c	0.14779347
215	0x3e1b596e	0.15170833
216	0x3e37ac2d	0.17936774
217	0xbf3b8273	-0.73245925
218	0x3f8f3857	1.1189069
219	0x3da65e9e	0.081235155
220	0xbca1aeb7	-0.01973663
221	0x3d15a6c0	0.03653598
222	0xbe115059	-0.14190806
223	0x3e6f3a27	0.23362027
224	0xbdbcd0c3	-0.09219506
225	0xbefe9282	-0.49721152
226	0x3ea24bcb	0.3169845
227	0x3f468c03	0.7755739
228	0x3e74410b	0.23852937
229	0xbe6e8a05	-0.23294838
230	0x3f34fba1	0.70696455
231	0x00173c22	2.133788e-39
232	0x8001d071	-1.6661e-40
233	0x80267dfb	-3.534942e-39
234	0xbd0cde08	-0.034391433
235	0x3db76abb	0.08955904
236	0xbca669ce	-0.020314123
237	0x3c21c1f0	0.009872898
238	0xbe9c592f	-0.30536792
239	0x3c01c394	0.007920165
240	0xbe1ae112	-0.1512492
241	0xbfa07ac8	-1.253747
242	0xbf4a52fc	-0.79032874
243	0xbe989db0	-0.29807806
244	0x3e4036f9	0.1877097
245	0x3ef7bffc	0.4838866
246	0x3dbd4eb2	0.092435256
247	0xbdce45f8	-0.10071939
248	0xbea1c931	-0.3159881
249	0x3d00358f	0.031301077
250	0xbe49cf83	-0.19708066
251	0xbe9ccef2	-0.30626637
252	0xbea8fdd8	-0.33006167
253	0xbddd0945	-0.10792784
254	0x3f008122	0.5019704
255	0x3ebabbd1	0.36471418

conv3.bias f4 [64]
0	0xb6e8a116	-6.9328917e-06
1	0x371ec626	9.463669e-06
2	0xb8c3033b	-9.298926e-05
3	0x3760312e	1.3362891e-05
4	0xb825dde8	-3.9545732e-05
5	0xb832cd5b	-4.262976e-05
6	0x39823ade	0.00024839392
7	0x38d753c3	0.00010267601
8	0x386ccb9c	5.645641e-05
9	0xb82b2305	-4.080219e-05
10	0xb87e7ee5	-6.06765e-05
11	0xb755b0a5	-1.2736918e-05
12	0xb7813c03	-1.5405943e-05
13	0x37523636	1.2529597e-05
14	0x3676f4ae	3.6799279e-06
15	0x37596f46	1.2960116e-05
16	0xb84c9e6b	-4.878493e-05
17	0xb7c43bda	-2.3392891e-05
18	0x384c88b2	4.8764698e-05
19	0xb7c47daa	-2.3423538e-05
20	0xb904243b	-0.00012601998
21	0xb7b7f664	-2.1930035e-05
22	0xb72af8f0	-1.019075e-05
23	0x38d21c2a	0.00010018826
24	0x387ac004	5.9783473e-05
25	0x36e02413	6.67992e-06
26	0xb69bb1b7	-4.6400487e-06
27	0xb56a0ea2	-8.7193087e-07
28	0x382a3f35	4.0590025e-05
29	0xb7e03a57	-2.6730047e-05
30	0xb745688a	-1.1766455e-05
31	0x38d8cdaa	0.000103379905
32	0x35bb9e67	1.3978687e-06
33	0xb7dc7098	-2.6278474e-05
34	0x39274ad1	0.00015954232
35	0xb729e100	-1.0125572e-05
36	0xb6646400	-3.4032855e-06
37	0xb823644e	-3.8955644e-05
38	0x3789bf45	1.642074e-05
39	0xb76e4a33	-1.4203181e-05
40	0x36e4be46	6.8170802e-06
41	0xb809e435	-3.287588e-05
42	0xb72b165a	-1.0197598e-05
43	0xb824cba8	-3.9290317e-05
44	0x369a166f	4.5921693e-06
45	0xb90c3159	-0.00013369824
46	0x38578d4c	5.1391587e-05
47	0xb82a6acb	-4.0630617e-05
48	0xb846a4d6	-4.7360394e-05
49	0xb7355fc5	-1.0810739e-05
50	0xb8a2a9ba	-7.756376e-05
51	0xb6d63e74	-6.3849675e-06
52	0x371acee3	9.227285e-06
53	0x3803f07a	3.1456795e-05
54	0xb89ec29e	-7.5702774e-05
55	0xb841aff0	-4.617864e-05
56	0xb797de57	-1.8104138e-05
57	0x3772275d	1.4433489e-05
58	0x379b30ca	1.8500159e-05
59	0x37fd45bb	3.0192421e-05
60	0xb858649c	-5.1592113e-05
61	0x381149b7	3.4639346e-05
62	0x368ecb9d	4.2556335e-06
63	0xb8c33a41	-9.309175e-05

bn3.weight f4 [64]
0	0x3fea0296	1.8282039
1	0x3fe6ced0	1.8031864
2	0x3ffbb29e	1.9663885
3	0x3fe1d726	1.7643783
4	0x400dbef8	2.2147808
5	0x4004af1f	2.0731885
6	0x403629a4	2.8462915
7	0x3fdd52a2	1.7290843
8	0x40176389	2.3654501
9	0x3fdf4e0d	1.7445694
10	0x3fe5dde6	1.7958343
11	0x3fbcfd70	1.4764843
12	0x3ff0ee15	1.8822657
13	0x3fdf7c3d	1.745979
14	0x40130d40	2.2976837
15	0x401a5b97	2.4118402
16	0x3f9f5e9c	1.2450747
17	0x403b31aa	2.9249063
18	0x3fd508cc	1.664331
19	0x3fb9c896	1.4514339
20	0x400b0fbb	2.172835
21	0x3fe44eb7	1.7836522
22	0x3fe14549	1.7599269
23	0x3fd51f29	1.6650134
24	0x3fd97945	1.6990134
25	0x3fd3921b	1.6528963
26	0x3fabdd8c	1.3426986
27	0x4005cc1c	2.0905828
28	0x40235966	2.5523314
29	0x3ff671e6	1.9253509
30	0x3f72ac8f	0.94794554
31	0x3fde2467	1.7354859
32	0x3fe3cebc	1.7797465
33	0x400db1a5	2.2139676
34	0x3fdf5070	1.7446423
35	0x3fd71205	1.6802374
36	0x401e37f4	2.472165
37	0x3ff0707d	1.8784329
38	0x3fe046c1	1.7521592
39	0x3fbed0bd	1.4907452
40	0x3fdcdd16	1.725497
41	0x3ff70c4c	1.9300628
42	0x400171a0	2.0225601
43	0x400319a4	2.04844
44	0x3ff3bf6f	1.9042796
45	0x3f977a51	1.1834203
46	0x3fc8a32e	1.5674798
47	0x400a8521	2.1643755
48	0x400b3c8d	2.1755707
49	0x403988fc	2.8989859
50	0x4012ee67	2.295801
51	0x4011f690	2.280674
52	0x3fe5f770	1.7966137
53	0x3fd282cd	1.6446167
54	0x3fd527c6	1.6652763
55	0x3fe17cd6	1.7616222
56	0x40035ca9	2.0525305
57	0x3fdded0e	1.7337968
58	0x3fc6d86b	1.5534796
59	0x3ff589ed	1.9182717
60	0x4019f1b3	2.4053771
61	0x3fceb56d	1.6149117
62	0x3fbda22d	1.4815117
63	0x3fcdde1e	1.608341

bn3.bias f4 [64]
0	0xbfaced34	-1.3509889
1	0xbf78d62b	-0.97201794
2	0xbf40d6da	-0.7532784
3	0xbf92c087	-1.1465005
4	0xbfb7b73f	-1.4352797
5	0xbfceae57	-1.6146954
6	0xc00cce26	-2.2000823
7	0xbf4c612e	-0.79835784
8	0xc008a8ec	-2.1353102
9	0xbfd48da0	-1.660572
10	0xbfec08de	-1.8440206
11	0xbf86e4c8	-1.0538568
12	0xbfc26cb5	-1.5189425
13	0xbfa32beb	-1.2747778
14	0xbfbde5ec	-1.4835792
15	0xbff6fc5a	-1.9295762
16	0xbf5df1ab	-0.8669688
17	0xbffcf95f	-1.9763602
18	0xbfb7e6e2	-1.4367335
19	0xbf76a5bc	-0.9634664
20	0xbfb24eac	-1.3930259
21	0xbfa5fa33	-1.296698
22	0xbfbe914b	-1.488809
23	0xbf932970	-1.1497021
24	0xbf8fc2a3	-1.1231273
25	0xbf8417ed	-1.0319802
26	0xbf6a4d5d	-0.91524297
27	0xbf7fe22d	-0.9995449
28	0xbfe8316c	-1.8140082
29	0xbfa7b1c8	-1.310113
30	0xbe32081a	-0.17385903
31	0xbf4b13b7	-0.7932696
32	0xbf87b8e1	-1.0603296
33	0xbfb0b7d0	-1.3806095
34	0xc0092f39	-2.1435072
35	0xbf80c558	-1.0060225
36	0xbfcdcff3	-1.6079086
37	0xbf65d946	-0.8978466
38	0xbf96567d	-1.1745144
39	0xbf22da7a	-0.6361462
40	0xbf7f556f	-0.99739736
41	0xbf8bc461	-1.0919305
42	0xbf8ed870	-1.1159801
43	0xbf878421	-1.0587198
44	0xbf698721	-0.91221815
45	0xbeaeebee	-0.34164375
46	0xbf642418	-0.89117575
47	0xbfab6db5	-1.3392855
48	0xbfb52245	-1.4151083
49	0xbfefbb82	-1.8729098
50	0xbfb850dd	-1.4399678
51	0xbfc0f0a6	-1.507344
52	0xbf6e26d3	-0.9302799
53	0xbf718923	-0.9434988
54	0xbf8271f2	-1.0191023
55	0xbefae03c	-0.48999202
56	0xbfba8756	-1.4572551
57	0xbf857318	-1.0425749
58	0xbf1820ac	-0.59424853
59	0xbfa7e2ce	-1.311609
60	0xbfe56f2a	-1.792455
61	0xbf6ea331	-0.9321776
62	0xbf9d531a	-1.2290986
63	0xbfbe8c3d	-1.4886547

bn3.running_mean f4 [64]
0	0xbf5e3eec	-0.8681476
1	0xbec6eff8	-0.38854957
2	0xbe59401f	-0.21215867
3	0xbff56da3	-1.9174083
4	0xbe957edd	-0.29198352
5	0x3f22c0de	0.6357554
6	0xbf02db95	-0.51116306
7	0xbdd53d3e	-0.10412072
8	0xbeee7595	-0.46574083
9	0xbfaa6c1a	-1.331424
10	0xbe26f77e	-0.16305348
11	0x3f5c89c2	0.861477
12	0xbfa558fd	-1.2917782
13	0xbefa43e8	-0.48879933
14	0x3f07b1f1	0.5300589
15	0x3ec92299	0.39284208
16	0xc03c482b	-2.9419048
17	0xbf491d1e	-0.78560054
18	0xc002899a	-2.0396485
19	0x3ea0ab3a	0.31380635
20	0x3d8ed6fc	0.06974599
21	0xbfc751b0	-1.5571804
22	0xbe9bf49a	-0.30460054
23	0xbd7cd376	-0.061725102
24	0xc0058f4a	-2.0868707
25	0xbfb6cf6c	-1.428205
26	0x3ea95c0d	0.33078042
27	0xbee34705	-0.4439012
28	0x3eef90cb	0.46790156
29	0xbf1fdb44	-0.6244395
30	0x3edffec8	0.4374907
31	0xc01e19d2	-2.470326
32	0xbf880a29	-1.0628101
33	0x3ea3ee69	0.3201783
34	0xbf558ed5	-0.8342107
35	0xbefb4391	-0.49074987
36	0xbffa359c	-1.954761
37	0xbf94247c	-1.1573634
38	0xbeb2b90f	-0.34906814
39	0x3f8b6b2b	1.089208
40	0x3f2438ba	0.6414906
41	0xbea802b7	-0.3281457
42	0x3f33150a	0.6995398
43	0x3dc00a40	0.09376955
44	0xbe9c7b54	-0.30562842
45	0x3ef813b5	0.48452535
46	0xbf0de964	-0.5543425
47	0xbe6cddb5	-0.2313145
48	0xbfe5188a	-1.7898114
49	0xbf07c280	-0.5303116
50	0xbd8feabc	-0.07027194
51	0x3f8a39fc	1.0798945
52	0x3f9b5bc6	1.2137382
53	0xbf635aac	-0.8881023
54	0xbf31bc76	-0.69428194
55	0x3dbff0bf	0.093720905
56	0xbfb79b6d	-1.4344307
57	0xbf1bf112	-0.6091472
58	0x3f568656	0.8379873
59	0xbfa4ad6a	-1.2865422
60	0x3d2dd54b	0.04243974
61	0xbf4d0fd8	-0.801023
62	0xbff89825	-1.9421431
63	0x3e1c3b3e	0.15256974

bn3.running_var f4 [64]
0	0x3f1026b8	0.5630908
1	0x3ebdf9d7	0.37104675
2	0x3f108f2d	0.5646847
3	0x3e975f79	0.29565027
4	0x3f2d4df6	0.67697084
5	0x3ee6b28b	0.45058092
6	0x3e7f003e	0.24902436
7	0x3e6f42e7	0.23365365
8	0x3e67223d	0.22571655
9	0x3e6e9d75	0.23302253
10	0x3eaa5e72	0.3327518
11	0x3f6f2d11	0.9342814
12	0x3f1e85ec	0.619231
13	0x3e4ecaf7	0.20194612
14	0x3f634143	0.88771456
15	0x3ef924c3	0.4866086
16	0x3e9316a9	0.28728226
17	0x3f308488	0.68952227
18	0x3ea32ce0	0.31870174
19	0x3ed5e9f0	0.41780043
20	0x3f5a89ab	0.85366315
21	0x3f0e3744	0.5555308
22	0x3e5554b6	0.20833096
23	0x3f0d6078	0.55225325
24	0x3f4fee60	0.81223106
25	0x3f0059e2	0.5013715
26	0x3f291ab0	0.66056347
27	0x3f59a47a	0.85016596
28	0x3eb6f5b9	0.35734347
29	0x3e897da4	0.2685367
30	0x3ea0644f	0.3132653
31	0x3eba402d	0.36377087
32	0x3f22c28a	0.63578093
33	0x3eb0bbd5	0.34518304
34	0x3e24d98f	0.16098617
35	0x3f099409	0.5374151
36	0x3f277896	0.65418375
37	0x3ed6f8e9	0.41986778
38	0x3fbc3a53	1.4705299
39	0x3f99a8cc	1.2004638
40	0x3e93a8b4	0.28839648
41	0x3f8fd074	1.123549
42	0x3f138508	0.57624865
43	0x3f796974	0.97426534
44	0x3f39cdd9	0.72579724
45	0x3f0baf24	0.5456412
46	0x3eb552b1	0.3541465
47	0x3f4c11d8	0.7971473
48	0x3f3cd2b2	0.73758996
49	0x3f80ba96	1.0056942
50	0x3f2f6e73	0.6852791
51	0x3f6599df	0.89687914
52	0x3f74e1cd	0.95657045
53	0x3ea0b2f4	0.3138653
54	0x3f1aaad0	0.6041689
55	0x3f3420ca	0.7036253
56	0x3ede67ce	0.43438572
57	0x3f86aaef	1.0520915
58	0x3f1b7e5f	0.607397
59	0x3f3f6cae	0.7477521
60	0x3e757eb8	0.2397412
61	0x3fa0e1f9	1.2568961
62	0x3ee593c5	0.44839302
63	0x3f4371af	0.7634534

fc1.weight f4 [2, 64]
0	0x3d22ed3f	0.039777037
1	0x3dfe8d67	0.12429314
2	0xbdcbd022	-0.099518076
3	0xbdb9cb79	-0.090720125
4	0x3da7e1ee	0.081973895
5	0xbd931264	-0.07181242
6	0xbda0978a	-0.07841404
7	0xbd910dd9	-0.07082719
8	0x3d6b8865	0.057503123
9	0x3d8be32f	0.06830441
10	0x3dd0baf5	0.10191909
11	0x3dd39887	0.10331827
12	0xbc170a55	-0.009218772
13	0x3d29629b	0.041353803
14	0xbd0ba607	-0.034093883
15	0x3b79370a	0.003802719
16	0xbd0baf46	-0.0341027
17	0xbd51f8a3	-0.05126251
18	0xbd533d4e	-0.051572137
19	0x3daade6f	0.08343207
20	0x3c963e72	0.018340323
21	0x3d851f3f	0.065001
22	0xbdbcb0ca	-0.09213407
23	0x3d75a85b	0.05997501
24	0x3dd1e5b4	0.102488905
25	0x3d48fdad	0.04907005
26	0xbcd9aed8	-0.02657263
27	0xbd5588bb	-0.05213235
28	0xbdac5540	-0.08414698
29	0xbdafcd37	-0.085840635
30	0x3dd1a744	0.102369815
31	0x3ce22be4	0.02760882
32	0x3ca82a22	0.020527903
33	0x3c61140f	0.0137376925
34	0xba2d60ad	-0.0006613832
35	0x3d6aa38d	0.05728488
36	0xbd87e81f	-0.066360705
37	0xbd884d49	-0.06655366
38	0xbdc3517f	-0.095370285
39	0xbd866b6a	-0.06563456
40	0x3d3ec96b	0.046578806
41	0x3d941779	0.072310396
42	0x3d58fd4b	0.052975934
43	0xbd4f518d	-0.050614882
44	0x3d979964	0.07402304
45	0x3b238cab	0.002495567
46	0x3dd52c8a	0.10408886
47	0x3999a050	0.00029301876
48	0x3d5e8120	0.054322362
49	0xbd27d9e6	-0.04097929
50	0xbc959dd2	-0.018263731
51	0x3d932031	0.071838744
52	0x3d669182	0.05629111
53	0x3d8d8194	0.06909481
54	0x3e03661c	0.1283192
55	0x3cbcecef	0.023062197
56	0x3de36439	0.111031
57	0x3d6aa39f	0.057284947
58	0xbc58abda	-0.013224566
59	0xbc93ecf6	-0.018057328
60	0x3dd38d4f	0.10329687
61	0xbdbc368a	-0.0919009
62	0xbd60eabf	-0.05491137
63	0x3da32bab	0.079673134
64	0xbcd12ec0	-0.025534987
65	0xbdf8a323	-0.12140491
66	0x3dd739b0	0.1050905
67	0x3df9f486	0.12204842
68	0x3e1201a5	0.1425844
69	0x3d275fe4	0.040862933
70	0x3e00e23e	0.12586305
71	0x3dacb83d	0.08433578
72	0xbdfdb67b	-0.12388321
73	0xbdac8fa8	-0.08425838
74	0xbdac50cb	-0.084138475
75	0xbc16157c	-0.009160396
76	0xbd8c87a6	-0.068618104
77	0xbd931c14	-0.0718309
78	0xbd91b9c6	-0.071155116
79	0xbe04a8ba	-0.12954989
80	0xbd98995d	-0.07451127
81	0x3b9a9422	0.004717366
82	0x3d4ab424	0.0494882
83	0x3d165100	0.03669834
84	0xbd99cee3	-0.07510164
85	0xbcb86c73	-0.02251265
86	0xbdbd469c	-0.09241983
87	0xbded19ad	-0.11577163
88	0xbd40a4a3	-0.04703201
89	0x3dff615f	0.12469744
90	0xbd02856f	-0.031865533
91	0xbdbe0a2c	-0.09279284
92	0xbd365feb	-0.04452507
93	0xbdfe7a38	-0.12425655
94	0xbd998efc	-0.07497975
95	0xbe0e599b	-0.1390137
96	0x3cdd9e7a	0.027053107
97	0xbcf1b7d4	-0.029506601
98	0xbdf74acb	-0.120748125
99	0xbcbcb86b	-0.023037156
100	0x3d60f55d	0.054921497
101	0xbddcec84	-0.10787299
102	0x3c014535	0.007890035
103	0x3c5bb90b	0.013410817
104	0x3d3ddc34	0.04635258
105	0x3b749176	0.0037318147
106	0x3da767fb	0.081741296
107	0xbdba0b8a	-0.09084232
108	0x3dc3410a	0.095338896
109	0x3dfde41a	0.123970225
110	0x3d84a862	0.06477429
111	0xbe088832	-0.13333204
112	0x3bdd3f91	0.0067519625
113	0x3dcd098f	0.10011589
114	0x3def44cb	0.11683043
115	0x3c85c02f	0.016326992
116	0x3d180c7d	0.037121285
117	0x3d1cf1aa	0.038316406
118	0xbe00052f	-0.12501977
119	0x3d1781ec	0.036989138
120	0x3de3b1f5	0.11117927
121	0xbbdb3938	-0.0066901706
122	0xbdba2c50	-0.09090483
123	0x3d7af21d	0.061266053
124	0xbe116d17	-0.1420177
125	0xbc4e965d	-0.012609092
126	0x3c851348	0.016244546
127	0x3a70e0b5	0.00091887574

fc1.bias f4 [2]
0	0xbdf7a458	-0.12091893
1	0xbdafa659	-0.0857665
